checkpoints/yoho/model_best.pth (torch, 53833 bytes, 9 tensors)

vlador.pool.centroids f4 [64, 32]
00000000: d911 ecb9 6ff7 6a3c 5263 3f3c b742 1abc
00000010: e17f 6f3d 104f b6bc a73e 7c3d 537d 2b3c
00000020: 765d ad3d 48aa 81bd e466 9ebd 178b 523d
00000030: 9ab1 36bd 14e3 f5bc 95b9 963d cc87 d03d
00000040: b1e0 abbc a1af 2d3d 700d 55bd 38b1 7c3c
00000050: e6a4 d8bd 27d3 b1bc f9e1 823c 80db 6d3d
00000060: 44e2 afbc dfe7 823d aa28 f9bc 21af 8b3b
00000070: 14c0 403c 44c7 0c3d 3942 c6bc a897 6f3c
00000080: 1513 31bc 673e a73c d8ba edbb eca8 3d3b
00000090: 0924 e73d 6d6c 0ebd c8a6 373d 46a4 53bd
000000a0: 7f0a ce3d f08c b13b c84f dd3c d82a 91bd
000000b0: 54f0 26bd 6691 34bd bc66 83bc b6e9 46bd
000000c0: 3cd3 53bb 5ebd 66bc d1b7 763d 8b20 96bc
000000d0: d75f 72bd 2d03 7cbb 578c 4b3d a12d b43d
000000e0: da38 87bd 4691 87bd d4cf 913b fc4d b7bd
000000f0: 8bb2 fbbc 7c85 2fbd 9396 67bd 8cfa 3d3d
00000100: d566 96bb 9e1e c83a 5a19 70bd ce4a bbbc
00000110: 3845 ac3d 2bbd fdbc 368b 183d 4773 71bd
00000120: 9283 e43b 0c0e 18bd 0683 a2bd 288d fabc
00000130: e3d9 36bd 0681 883d baca 4ebd b5ba b73c
00000140: bb61 23bd 8095 96bd 0f81 9c3d 41c7 563d
00000150: b447 e2bc 7e71 543d dc3b ed3d 661a 683d
00000160: 6a95 31bd ffed 7c3c facc 273d 4ab6 05be
00000170: e2b9 c9bb 570f 03bd 3fec 15bc c442 60bd
00000180: f83b 4fbd e594 3fbc 357c bcba 6f71 0e3d
00000190: c64a 7d3d 8977 a33c 558a cf3b 8dc1 e6bc
000001a0: ee1f 41ba 4e14 a0bd cfab 233d c680 e9bc
000001b0: 9bcc a0bc 4fa2 c33c 74dd 84bd c4c9 86bc
000001c0: 5aa0 b8bd 8f02 5ebd bea1 863d d332 81bd
000001d0: 1080 9bbc 2959 a93d e308 a4bc 263c d43c
000001e0: a2a4 053d 570b a83c 91b5 d73c ed1e 01be
000001f0: 935c 80bc 147b c03d 3e13 c8bd 8d09 693c
00000200: 78a1 9dbd 890d a8bd c6e9 073d e309 3a3c
00000210: f883 30bd d4f1 c93d 4be4 4dbd 54dd ea3d
00000220: e9e7 d53c b92e 7ebc 3289 e63c c913 863d
00000230: e251 243d d2ab 24bd 1c37 163d 8e2b 2bbd
00000240: 1f89 17bd 5fb2 0dbd b9d1 88bd 2b68 ed3c
00000250: a9c4 8fbd faf0 893a d25c 213d 6bf9 14b9
00000260: 1afd 9c3d 3077 1a3e 7151 b63d 4b6e 60bd
00000270: db5e 0d3d 1b65 bf3d 1203 1cbd e947 eebc
00000280: 4dd1 4ebc 4597 d03c db39 b2bc 9dbe b03d
00000290: 2cac edbc 1a83 2a3c 784c 363d 736c c23b
000002a0: 02df c73d a260 06bd 6f9a 273c e4c1 48bd
000002b0: 6d97 0d3d 9f77 5cbd 5694 d6bb 0d69 03bd
000002c0: 66f2 c9bd eee8 06bc 66eb 783d de13 a3bd
000002d0: 7fa8 08bc 6310 ccbc b8eb 913d 00b2 89bc
000002e0: e3e7 b8bd 02ef 7e3c 60cf 51bc db89 d7bd
000002f0: 0e2c 33bc d3f8 003e 5930 bfbc 03a6 70bd
00000300: 6470 e8bb 049b c93c 8301 8ebb fd8f 92bd
00000310: c1c5 433c e952 c73d bee6 ec3c f32d af3d
00000320: 68ea c23d 12e7 6c3b cb80 a7bd cacd 423d
00000330: 4700 403d bf36 8cbd 2d04 04bd 6e50 463d
00000340: 0c65 433c 839d bbbc a2b1 eb3c 3934 1cbe
00000350: 9806 80ba 77c8 49bd 3fbe 8abd 0bc1 013d
00000360: 865f 5abd 5a31 843d bbc4 033c 93ba 013d
00000370: d3fd 36bd 17ba 053d 34ac 07bd ec77 ccbd
00000380: 25f0 b23c 2322 10bc 4fc1 8bbd 95d4 253c
00000390: 063d 173c 1989 11bd aae2 9d3d de0c 4dbd
000003a0: 3228 943c 91c9 953c 2ace 99bd 8e6d 963c
000003b0: 2a42 c13c dbb1 dfbc a524 40bd d2e6 803d
000003c0: 71a9 033d ba26 c13c 5cb7 19bd 26de f93c
000003d0: 49b5 12bd f3f9 00bc 0ba7 343d 03d3 82bc
000003e0: 99e7 bdbd 3485 5bbd 2b83 1ebd d974 c6bd
000003f0: 8d5c 2f3c ccda e9bc 3f0b 063d 2aae c2bc
-0.00045026725 0.014341219 0.011681395 -0.00941532 0.058471564 -0.022254497 0.061583187 0.010466891
0.08465092 -0.06331307 -0.077344686 0.051402178 -0.044602968 -0.030015506 0.07359616 0.10182151
-0.020981165 0.04240382 -0.052014768 0.015423112 -0.10578327 -0.02170713 0.015976893 0.05807066
-0.021470197 0.06391882 -0.030414898 0.0042628204 0.011764545 0.034369722 -0.0242015 0.01462356
-0.010807772 0.020415498 -0.0072549395 0.0028939797 0.1128617 -0.03477137 0.04483679 -0.051670335
0.10060596 0.0054184124 0.027015582 -0.0708825 -0.04075654 -0.044083975 -0.016040199 -0.048562728
-0.003232195 -0.014083235 0.060233895 -0.018326065 -0.05917343 -0.0038454041 0.049694385 0.087977655
-0.066026405 -0.066195056 0.004449824 -0.08950421 -0.030724784 -0.04285191 -0.056540083 0.04638152
-0.0045898953 0.0015267914 -0.058617927 -0.022862818 0.0841164 -0.030973991 0.037242137 -0.058947828
0.006973692 -0.03712277 -0.07935147 -0.030584887 -0.044641387 0.06665234 -0.050486304 0.022427896
-0.039888125 -0.073527336 0.076418035 0.052436117 -0.027622081 0.051866047 0.11583683 0.0566658
-0.043355383 0.015437602 0.040966965 -0.13057819 -0.006156192 -0.03199705 -0.009150564 -0.054751173
-0.0505943 -0.011693214 -0.0014380278 0.034776147 0.061838888 0.01995446 0.006333629 -0.028168464
-0.00073671236 -0.07816373 0.03995877 -0.028503787 -0.019628813 0.023881106 -0.06487551 -0.016453631
-0.0901496 -0.05420166 0.065738186 -0.06308522 -0.018981963 0.08268959 -0.020023769 0.025907587
0.03262771 0.02051322 0.026331695 -0.12609453 -0.015669143 0.09398475 -0.09769295 0.0142234685
-0.07696813 -0.082057066 0.033181928 0.011354896 -0.043094605 0.09860578 -0.050266545 0.11467996
0.02611156 -0.015514069 0.028141592 0.065467425 0.040117152 -0.040202923 0.03667365 -0.041789584
-0.036996003 -0.034593936 -0.066806264 0.028980335 -0.07019932 0.0010524087 0.03939516 -0.00014207295
0.07665463 0.15084529 0.089022525 -0.054792684 0.03451429 0.09345456 -0.038088866 -0.029087024
-0.012623143 0.025462756 -0.021756103 0.086301066 -0.029012762 0.010407234 0.04450652 0.0059333383
0.09759332 -0.032807 0.010229691 -0.049013034 0.03456824 -0.053825017 -0.0065484447 -0.032082606
-0.09860687 -0.008234246 0.06077137 -0.07962774 -0.008340954 -0.024910158 0.07125038 -0.01680851
-0.09028604 0.015559914 -0.01280579 -0.10524341 -0.010935796 0.12594919 -0.023338484 -0.05875207
-0.007093476 0.02461005 -0.0043336763 -0.0715637 0.011949004 0.09732611 0.02891862 0.08553686
0.09517366 0.003614847 -0.08178862 0.047559537 0.046875264 -0.068463795 -0.032230545 0.048416547
0.011925947 -0.022902256 0.028771225 -0.15254296 -0.000976759 -0.049263444 -0.06774568 0.03167824
-0.053313754 0.064547256 0.00804251 0.03167207 -0.04467566 0.032648172 -0.03312321 -0.09983811
0.021843025 -0.008797201 -0.0682398 0.010121484 0.009230858 -0.035531137 0.07709248 -0.0500611
0.018085573 0.01828459 -0.07510026 0.018362787 0.02359112 -0.027306488 -0.046909947 0.062940255
0.032144014 0.023578037 -0.03752838 0.030501436 -0.03581742 -0.007872093 0.044104617 -0.015969759
-0.09272689 -0.05359383 -0.03869931 -0.09690256 0.010703218 -0.028546713 0.03272557 -0.023764689

vlador.pool.conv.weight f4 [64, 32, 1, 1]
00000000: d9bf 943f fbc1 ce3f 145a 2e3f c0d5 0f3f
00000010: dd08 5740 31c2 fbbf 5788 7640 aa24 42bf
00000020: 73ec 2b40 c27f e5bf 90e6 b0bf 1cc0 0e40
00000030: 87de e8bf 19b1 be3e bf16 9240 ca59 7440
00000040: 5c58 b73f 30de 9a40 69e9 8bbf b67c 2640
00000050: 3e51 09c0 a4d3 f2bd 830c 983e ecca 3240
00000060: 8a09 c43e 5875 c03f ffd3 23c0 a339 ef3f
00000070: 58fb 0140 3f0a d5be c3c5 fd3d 75b2 1c40
00000080: 2b48 9a3f 055d d43f 0d7f 143d b6d4 de3f
00000090: 2d5d 8440 45cc 04c0 d523 5f40 bf9a 02c0
000000a0: bcdb 5940 03c0 953f f2f3 a53f e040 fcbf
000000b0: 1c50 b5bf c4e7 67be d9d4 9a3f 93de 62bf
000000c0: 68a0 0240 9cbb 2240 390d 3f40 96a1 a13e
000000d0: b5d7 2cbf ec4b b33f 92bc 503f 384f 3940
000000e0: f12a 98be a0f4 1ac0 9d40 8fbe 3b9e ccbe
000000f0: 48ee 05be 9c9d 2ac0 9c46 04bf 7225 8240
00000100: 5b83 073f 36f2 733f 5912 eebf 0ee9 963f
00000110: feab 5640 87d4 b9bf 2c23 2b40 241e f6bf
00000120: 9963 e1be 204d b73e 687e e7bf fa4d 5bbf
00000130: 8a77 43bf 995e 5040 f587 67bf d68d 1140
00000140: c916 823f d2df 063e 2358 5640 8fb7 6440
00000150: e8a5 e23e e6a9 3f40 4bc8 4340 4285 0940
00000160: 4fca 76bd 617c 923e d64c 4c3f 144b edbf
00000170: f1b3 0a3f 4942 edbf 544d 923f 1ebc ea3e
00000180: 7f6c 6cbf 92de 3e3f 78de 853f 9b49 2840
00000190: fd68 4540 6ad1 c93e e7e9 b53f bdeb c6bf
000001a0: 48be 47bf e0e6 a9bf 505b 0e40 4f0c 98bf
000001b0: 6b9a 3fbe bdd7 ed3f 4f18 d5bf e561 463e
000001c0: eeba 51bf 5943 3dbc 3057 4440 2228 98bf
000001d0: e1da cd3f ebc2 6e40 733a e1bf 3aca 6d3f
000001e0: 7783 1b40 61fd 333e dbf2 583f 766d c0bf
000001f0: d8b7 f63e ea05 c33f a373 08c0 f201 0b40
00000200: da4a f0bf 6655 bebf 54cf d73f cc33 2b3f
00000210: d946 bfbe bfb9 6f40 169d c8bf e5cc 3140
00000220: 1042 efbe 3e5e 993f ffb8 0740 3c4c 3540
00000230: d8f3 a13f 3339 d73e 2106 2840 baf6 b7bf
00000240: 7d31 dd3f 38b3 883e 0dbc dabf b82d 1340
00000250: 2a97 8fbe dd7c 77be 745b cd3f b133 013f
00000260: 2051 8040 6aa5 4640 a263 3840 925a 3e3e
00000270: 17a3 0f40 8679 b93f 98d7 01bf eb41 a2be
00000280: c5c6 be3e 991b 1040 c47a dbbb 07c8 7240
00000290: 7abc f5bd 1bb2 c6bb 224e 4940 2c1e 9ebe
000002a0: 1411 3d40 9275 19bc 3833 ab3f 2d60 d1bf
000002b0: 2894 a63f 7d88 e9be 3929 7c3f 5895 57bf
000002c0: 4509 9ebf 7aad 1e40 b9a9 2640 a148 aebf
000002d0: 109a 1040 7666 013e a4d1 1040 f3ac 27bf
000002e0: d1f8 e3bf 8312 ccbe f305 b6be 0135 93bf
000002f0: 32aa 883f e24e 1f40 5da8 183f 1189 79be
00000300: ba46 bf3e 478c fc3f c5a5 563f 91f9 51bf
00000310: b871 f93f 83e5 4c40 3a4d 2e40 c039 1340
00000320: 264a 3940 4ac5 c53f 6f4e 71bf 450e 0f40
00000330: 36b7 d13f 713d 13bf 707a 31bf 6d60 8f3f
00000340: 81e5 1e40 cd2e 873f a945 c03f 6c23 24c0
00000350: 816c 3740 32eb ce3c 719e ddbf ad75 343f
00000360: d423 11bf cdb7 e03f 9fed d53c bcbd 3a40
00000370: dbd1 23bf d842 9fbe 9311 0c3d 5f10 02c0
00000380: 0cdc 0f40 4928 6f3f 7512 fabf ea7e e53f
00000390: 068f 8d3f 8e6f f6bf d6ff 8340 5584 16c0
000003a0: 057b 3d3e 6c5b fa3f 6ef1 cfbf 6168 5e3f
000003b0: 2802 af3f 6bd5 1e3f d08a 4dbf be97 5e40
000003c0: 212c 7340 8294 7940 d0f3 03bf b876 2a40
000003d0: ebfc 9b3e 1f78 6a3f 5bee 863f 57da 39bf
000003e0: 07c1 dfbf cf85 13c0 d254 12c0 babc afbf
000003f0: 666d e83f 333b ffbf 248f 4840 8c23 af3f
1.1621047 1.6152948 0.681062 0.5618553 3.359916 -1.9668638 3.8520715 -0.75837195
2.6863067 -1.7929614 -1.3820362 2.2304754 -1.819291 0.3724449 4.5652766 3.8179803
1.432384 4.8396225 -1.0930606 2.6013618 -2.1455836 -0.118567735 0.29697046 2.7936354
0.38288528 1.503581 -2.5598142 1.8689464 2.0309658 -0.4160938 0.12391236 2.4483922
1.2053274 1.6590887 0.036253978 1.7408664 4.136374 -2.0749676 3.486562 -2.040695
3.4040365 1.1699222 1.2965071 -1.9707298 -1.4165072 -0.22647005 1.2096206 -0.8862087
2.0410404 2.5427008 2.985182 0.31568593 -0.6751664 1.4007545 0.81537735 2.8954601
-0.29720262 -2.4211807 -0.27978984 -0.3996447 -0.13079178 -2.6658697 -0.5167024 4.067071
0.5293481 0.9529146 -1.8599349 1.1789873 3.3542476 -1.4517983 2.6740217 -1.9227948
-0.440213 0.3580103 -1.8085451 -0.8566586 -0.7635428 3.2557738 -0.9044183 2.274282
1.0163203 0.13171318 3.3491294 3.5737035 0.442672 2.9947448 3.0591 2.1487584
-0.06025153 0.2861052 0.7980474 -1.8538537 0.5418082 -1.8535854 1.1429849 0.45846647
-0.9235305 0.74558365 1.0458517 2.6294925 3.084533 0.39417583 1.4212006 -1.5540692
-0.7802472 -1.3273582 2.2243233 -1.1878756 -0.1871125 1.8581463 -1.6648043 0.19373281
-0.8192586 -0.011551701 3.0678215 -1.1887248 1.6082422 3.7306468 -1.7595962 0.928867
2.429899 0.17577125 0.8474557 -1.5033405 0.48187137 1.523618 -2.132058 2.1719937
-1.8772843 -1.4869812 1.6860147 0.6687591 -0.3735874 3.745712 -1.5672939 2.7781308
-0.4673009 1.1981885 2.1206663 2.832778 1.265254 0.42035827 2.625374 -1.437217
1.7280728 0.26699233 -1.7088639 2.2996655 -0.28045017 -0.24168725 1.6043534 0.504695
4.009903 3.103846 2.881081 0.18589237 2.2443292 1.4490211 -0.50719595 -0.31690916
0.37261024 2.2516844 -0.0066979844 3.7934587 -0.1199884 -0.0060637123 3.1453938 -0.30882394
2.9541674 -0.00936641 1.3375006 -1.6357476 1.3013964 -0.45611945 0.985004 -0.84212255
-1.2346579 2.4793382 2.604109 -1.3615915 2.2594032 0.12636742 2.2627954 -0.65498275
-1.7810308 -0.39857873 -0.35551414 -1.150055 1.067694 2.4891896 0.596319 -0.24368693
0.37358648 1.9730309 0.83846694 -0.82021433 1.9487829 3.2015083 2.7234635 2.3003998
2.8951507 1.5450833 -0.94260305 2.235246 1.6384037 -0.5751563 -0.6932745 1.1201302
2.4827578 1.0561157 1.5021259 -2.564662 2.8659976 0.025258634 -1.7313977 0.7049206
-0.56695294 1.7556092 0.026114283 2.9178305 -0.6399209 -0.31105685 0.034196448 -2.0322492
2.2478056 0.93420845 -1.9536883 1.7929356 1.1059272 -1.9252794 4.12498 -2.351827
0.1850396 1.955915 -1.6245553 0.8687802 1.3672533 0.620444 -0.80289936 3.4780116
3.7995684 3.8996892 -0.51543903 2.663496 0.304664 0.9158954 1.054149 -0.72598785
-1.7480782 -2.305042 -2.286427 -1.372947 1.8158386 -1.9939941 3.1337366 1.3682723

vlador.pool.conv.bias f4 [64]
00000000: c27c 56c0 9e43 40c0 8cb6 53c0 a8f3 4cc0
00000010: 47c2 0dc0 c559 89c0 137c b0c0 19f0 3ac0
00000020: 29fb 91c0 696d 9bc0 185a 2dc0 fa79 6fc0
00000030: 6545 78c0 0d6f 17c0 05ea 7bc0 7fa2 1dc0
00000040: d0d6 85c0 77d1 34c0 fdcf 92c0 85cd fdbf
00000050: fa23 8fc0 5c83 4cc0 936e 8ec0 2bb7 92c0
00000060: 9b99 56c0 8312 1fc0 47ac 45c0 c65a 1bc0
00000070: 8f3f 8ec0 b8e3 8fc0 698d 9ac0 bdab 57c0
00000080: d366 a1c0 aa71 9bc0 925e 5fc0 5346 65c0
00000090: 5ddc 84c0 33f6 2dc0 c6a3 8fc0 969a 2fc0
000000a0: 1422 9dc0 6b28 40c0 fff8 5ec0 6b83 7ac0
000000b0: 9c53 79c0 9b67 5bc0 8cf0 81c0 1a36 41c0
000000c0: f1d7 4bc0 1743 a0c0 baba 47c0 322f 45c0
000000d0: 83ad 63c0 2471 49c0 fa70 98c0 09d4 27c0
000000e0: d38a 7ac0 2d4d 42c0 35d7 43c0 1ad1 17c0
000000f0: 6a62 8cc0 52c6 37c0 6338 47c0 0cf8 80c0
-3.3513646 -3.004127 -3.3080168 -3.2023716 -2.2149827 -4.292208 -5.515146 -2.9209044
-4.561909 -4.8571057 -2.708624 -3.7418199 -3.8792355 -2.366153 -3.9361584 -2.463043
-4.182472 -2.8252847 -4.587889 -1.9828345 -4.4731417 -3.1955175 -4.450998 -4.5848594
-3.3531253 -2.4855049 -3.08864 -2.4274154 -4.4452586 -4.4965477 -4.829762 -3.369857
-5.043802 -4.857625 -3.490147 -3.5824172 -4.1519 -2.7181518 -4.488742 -2.7438102
-4.91041 -3.002467 -3.4839475 -3.914271 -3.895728 -3.4281986 -4.0606136 -3.018927
-3.185055 -5.0081897 -3.120772 -3.0810056 -3.5574653 -3.1475306 -4.763791 -2.6223166
-3.9147232 -3.0359604 -3.0600102 -2.3721375 -4.3870134 -2.8714795 -3.1128166 -4.030279

exp_avg f4 [64, 32]
00000000: 9cdd 4ab9 ed02 9838 b52d a039 3ecd 9037
00000010: 6320 29b9 1b8d 2c39 9205 81b8 48b0 c539
00000020: 01fe a537 89ca abb9 58fe 3639 ee56 1ab9
00000030: 1f76 37b8 2580 8ab9 71c6 67b7 f126 2139
00000040: 3e63 6ab8 20aa 8a37 ffef 7b39 b923 a5b9
00000050: a302 8036 d192 a439 d0dc b4b9 a4ad 30b8
00000060: 7fc0 ceb8 162c 8039 46c6 9a39 3fb0 8539
00000070: d7f3 6439 033c 6439 92a5 0138 8397 a8b9
00000080: e7df 40b9 66b9 0438 4dce 8839 13a4 5437
00000090: 3b74 16b8 70e5 1138 40ab 43b9 c38e f638
000000a0: fb92 aeb8 b79a 18b9 88da 6439 dbe6 9cb9
000000b0: a671 64b9 a833 52b9 bf9f 78b8 61ea d038
000000c0: df03 b5b8 1efd ceb8 38eb 7138 db13 83b9
000000d0: 2e71 5bb8 d875 113a debd 77b9 0059 90b8
000000e0: 0d9f 8bb9 9f58 2739 fd45 8138 98f3 9c39
000000f0: 921d 7138 2e1e b139 9bf2 9f38 d258 92b9
00000100: c2c5 12b9 3e8f 4237 2a3d 2238 1bdb 4139
00000110: 0448 cb37 bbd1 14b9 a3a5 0eb9 d4a9 7d39
00000120: 52ac c6b8 da53 3cb9 79cf b038 f4e3 a4b9
00000130: e708 4938 d1d3 87b9 d03a 94b8 55b0 0b38
00000140: 2c6f 71b9 7f65 4fb9 9948 be38 872c cbb9
00000150: abd0 9038 c30c 363a 5670 07ba f079 17b8
00000160: d96a e7b7 39bb 7639 8ab3 9438 90c9 0f3a
00000170: 2dd7 ccb8 2680 ff39 fd71 14b9 6525 24b9
00000180: a752 69b9 c07e 4538 73d2 dbb8 94af f538
00000190: 8573 ceb7 b10e aeb8 45de 32b9 b42b 3a38
000001a0: 7170 01b9 d601 14b9 be0c a939 2bad 8eb9
000001b0: 1c6f 3bb9 2cfe c4b8 d8b8 c2b9 a9d5 72b9
000001c0: 8cd9 d3b8 9dc0 2bb9 805d ff37 7519 ddb9
000001d0: 3bf7 bf38 b2ac 193a eb8f 32b8 3fae 9ab8
000001e0: daff f0b7 78b8 0e39 e3ad f038 87b4 a439
000001f0: 629e b938 b68a f739 731a 8bb9 08ab bcb9
00000200: d260 6cb9 af0c 2db8 56c4 b639 5be8 8838
00000210: ccc7 66b8 a326 f538 13eb 95b9 138c d639
00000220: ff84 3a39 966a 2ab8 cf83 5039 e1e4 0539
00000230: bea5 b239 c88b 32b9 79d9 7bb8 84bb a9b9
00000240: 11b3 a1b8 1d93 d5b7 a2bc 6eb8 2389 72b9
00000250: e78f 3939 c886 07b8 c95d 4cb9 02ff 3737
00000260: 5179 6e39 2520 5539 2865 b539 42ee af39
00000270: d7e4 a539 c999 6439 7006 b438 ceb5 9bb9
00000280: 7849 27b9 07ae 7836 fff3 e338 5cc8 d239
00000290: cd4e 8eb9 85ce b437 d440 50b9 d76b 8e39
000002a0: 971c a3b8 d406 19b9 1400 0239 8f6a 0fb9
000002b0: b4e3 d935 5686 84b9 ab2c 1537 38f8 2938
000002c0: ae7a 7cb8 36e0 2bb7 b667 1637 5258 9bb9
000002d0: 1ac4 17b8 8f78 0c3a b85b c1b9 0d46 1836
000002e0: e586 43b8 b03f 4738 8ad6 c138 de08 2c39
000002f0: 7714 b236 18eb b439 fae8 18b9 3ba0 abb9
00000300: d592 5cb9 bf9b 12b9 4edb 3239 58aa 1f37
00000310: 4ac5 47b9 2bba a438 156e 8bb9 cb9b 9039
00000320: c80a 2938 fe40 d8b8 aaad 5439 65d2 2bb8
00000330: ceeb a3b7 4f16 eeb8 4e61 3739 90d0 9d37
00000340: 96b6 12b9 df08 f4b8 2740 8f38 c9d5 07ba
00000350: a437 f1b8 9735 8339 e735 a9b7 0903 bab8
00000360: d3fa 76b7 525f 4139 d0ad 8b39 a40c 1739
00000370: bae9 1339 6000 bf39 0591 d636 a760 b5b9
00000380: 7b2f a3b9 2d01 ceb8 09ef 5339 85f7 9939
00000390: c7ba 20b9 1547 dd37 6302 02b9 8462 ab39
000003a0: 00ec 1635 9813 a9b8 59e8 8539 52d8 5ab9
000003b0: a2a4 9bb8 c98c ebb9 b876 1a36 6bd3 9e38
000003c0: 924d dfb8 3316 5638 68f1 f038 fe2b 1eb9
000003d0: 97a7 8db8 8ea1 0f3a 41c8 b2b9 d3dc dbb8
000003e0: 5cd3 25b9 009c d437 fe03 5539 c75a 6339
000003f0: abf5 f538 535a 003a 168f 37b8 2c58 68b9
-0.00019346777 7.24847e-05 0.00030551633 1.7261711e-05 -0.00016129161 0.00016455764 -6.152237e-05 0.00037706108
1.9787813e-05 -0.00032766562 0.00017451623 -0.00014718968 -4.374061e-05 -0.00026416886 -1.3814876e-05 0.00015368663
-5.5882374e-05 1.6530103e-05 0.00024026631 -0.00031497868 3.815004e-06 0.00031389904 -0.00034496794 -4.2123385e-05
-9.858701e-05 0.0002444691 0.00029520894 0.0002549905 0.00021834612 0.0002176613 3.0910196e-05 -0.00032156342
-0.00018393957 3.164392e-05 0.00026093647 1.2674386e-05 -3.5871035e-05 3.4784374e-05 -0.00018660445 0.000117567855
-8.324344e-05 -0.00014553485 0.00021825184 -0.0002992664 -0.00021786112 -0.00020046404 -5.9276583e-05 9.9618694e-05
-8.6314736e-05 -9.869992e-05 5.7677942e-05 -0.0002500106 -5.2319076e-05 0.0005548871 -0.00023626487 -6.8830326e-05
-0.00026630648 0.00015959375 6.164236e-05 0.0002993613 5.7486417e-05 0.00033782556 7.6268996e-05 -0.00027913466
-0.00013997316 1.1596652e-05 3.8680773e-05 0.00018487537 2.423302e-05 -0.0001419251 -0.0001360388 0.00024191226
-9.473473e-05 -0.00017960314 8.430979e-05 -0.00031450356 4.7930425e-05 -0.00025907022 -7.0681446e-05 3.3304404e-05
-0.00023024966 -0.00019778869 9.0734284e-05 -0.00038752353 6.9053225e-05 0.00069446507 -0.00051665807 -3.611477e-05
-2.75871e-05 0.00023530134 7.090632e-05 0.0005485052 -9.767558e-05 0.00048732868 -0.00014156844 -0.0001565419
-0.00022251402 4.7086505e-05 -0.00010481933 0.00011715214 -2.4610907e-05 -8.299703e-05 -0.00017058205 4.4386557e-05
-0.00012344286 -0.00014115064 0.00032243686 -0.0002721337 -0.00017875101 -9.3933515e-05 -0.00037140283 -0.00023158513
-0.00010101785 -0.00016379585 3.0441908e-05 -0.00042171372 9.15364e-05 0.00058622204 -4.257254e-05 -7.375748e-05
-2.872937e-05 0.00013610895 0.00011476481 0.0003141502 8.8509885e-05 0.0004721486 -0.00026531852 -0.00035985583
-0.00022542782 -4.1258227e-05 0.00034860027 6.528265e-05 -5.502235e-05 0.00011689707 -0.0002859464 0.00040921624
0.00017787887 -4.0630424e-05 0.00019885528 0.00012769132 0.00034074293 -0.00017027475 -6.00456e-05 -0.00032373902
-7.710432e-05 -2.5460084e-05 -5.69193e-05 -0.00023130006 0.00017696583 -3.2312033e-05 -0.00019489894 1.0967024e-05
0.00022742643 0.00020325238 0.00034598378 0.00033556117 0.0003164175 0.00021801064 8.584268e-05 -0.0002969936
-0.0001595373 3.7056177e-06 0.00010869651 0.000402036 -0.00027143062 2.155384e-05 -0.00019860576 0.00027164698
-7.777771e-05 -0.0001459376 0.00012397795 -0.00013677239 1.623403e-06 -0.0002527709 8.891492e-06 4.052391e-05
-6.0195736e-05 -1.0244597e-05 8.964844e-06 -0.00029629708 -3.618384e-05 0.0005358541 -0.00036880164 2.269054e-06
-4.6617253e-05 4.750461e-05 9.242918e-05 0.00016406502 5.307196e-06 0.00034507434 -0.0001458264 -0.00032735043
-0.00021035534 -0.00013981665 0.000170571 9.5168e-06 -0.00019051615 7.854806e-05 -0.00026594164 0.00027581895
4.030278e-05 -0.00010311788 0.0002028259 -4.0965522e-05 -1.954092e-05 -0.0001135288 0.00017488489 1.8812978e-05
-0.00013991664 -0.00011636479 6.830721e-05 -0.0005181698 -0.000115021394 0.00025026195 -2.017147e-05 -8.8697365e-05
-1.4721142e-05 0.00018441424 0.00026641646 0.00014405191 0.00014106082 0.00036430638 6.3945795e-06 -0.00034595022
-0.00031125158 -9.8230645e-05 0.00020211576 0.0002936685 -0.00015328369 2.6378353e-05 -0.00012398655 0.00032689061
5.622278e-07 -8.0621976e-05 0.0002554085 -0.00020870686 -7.421641e-05 -0.00044927586 2.3016892e-06 7.573407e-05
-0.00010647917 5.104225e-05 0.00011489057 -0.00015084443 -6.75462e-05 0.00054790906 -0.00034100006 -0.000104838655
-0.00015814364 2.5345013e-05 0.0002031475 0.00021682224 0.000117282696 0.0004896272 -4.376386e-05 -0.0002215809

exp_avg_sq f4 [64, 32]
00000000: 0506 1a35 e28b 1935 0973 9935 fa3b 6635
00000010: 7ce0 6635 777b 0235 e474 5d35 1973 6b35
00000020: 75d7 8734 b224 a934 9929 9535 c065 7b35
00000030: 9b50 1435 d8dd 2e35 f884 3635 1bf6 5a35
00000040: 8566 0835 5021 8235 7cfb 1235 40d2 9235
00000050: 941a 8235 dadf c135 45da af35 d316 ea34
00000060: 375d 3e35 6ce4 ae35 c2fc 1736 e2b4 6235
00000070: 44b7 e935 5460 3035 4e55 c335 7493 8935
00000080: 3d47 7635 50a7 1f35 2284 3535 0dfc 2e35
00000090: de36 9f35 1f34 2c35 b3c9 2335 cf49 2a35
000000a0: e092 4a35 37e2 6634 cc94 3535 35da b235
000000b0: f17b 2735 c843 ce34 bc8c 5e35 4471 4f35
000000c0: 27a5 bd34 4bc0 ac34 de35 e534 c6cc 8335
000000d0: 069e c334 f70a b335 8b38 5135 078c 9e34
000000e0: ef72 5435 0bb2 8335 bfd4 af35 e88a 4435
000000f0: bbc4 da35 53dd 4a35 7165 8d35 a8f4 9335
00000100: 1637 ea34 024a 1d35 97bf 1a35 4ed3 5c35
00000110: e71f 8a35 09c9 7135 6946 3b35 af9b 8535
00000120: 5c6a 0235 6615 c134 69fb 4235 58ec 8735
00000130: 39d1 7435 2c4c 2635 e671 6e35 0b6a 3535
00000140: 14ec 0b35 0823 6735 d40e 1d35 775f eb35
00000150: 8343 1f35 e339 d235 5dec 9d35 8109 af34
00000160: e3d6 9335 cfdd 7a35 2887 ce35 db14 9835
00000170: 0628 da35 857d 1b35 08b4 8335 3f4e b835
00000180: d6e7 8635 073e 5b35 b5d8 4f35 1e10 9335
00000190: 37a7 d235 5151 7e35 8e61 6d35 5033 7b35
000001a0: 19b8 0035 f915 1135 8667 7635 339a 8d35
000001b0: 9cde 7035 78da 1c35 2fce 8735 57a2 8535
000001c0: 3ce2 dd34 84ef bc34 e1a2 0835 3a25 c335
000001d0: fedb d134 dd60 ef35 e3ca 8a35 5c22 e234
000001e0: 6353 c035 eb65 6a35 97f6 d335 dfe6 9c35
000001f0: a6f1 f035 0805 9235 8cef dc35 aae1 d835
00000200: cc5b 1b35 5206 9735 18fc 7235 8c1f 1c35
00000210: 990e 0635 04a5 cf34 3d23 5035 fb60 9335
00000220: dd27 9f34 19d7 f534 df05 6835 151c 5f35
00000230: 6fa5 9035 89ec 5935 d284 c334 f428 0f35
00000240: bab1 a234 7277 f034 7764 c434 40d7 b035
00000250: 5f73 0435 ca53 3a35 c6ea 7f35 cb81 8034
00000260: 5dae dd35 f73b 9135 8b08 d435 12b2 3235
00000270: 43ec ce35 37b8 0735 b5c0 8a35 a7ad 6535
00000280: acdc 5735 6b9c 4135 6eb8 df34 ad2b 9235
00000290: 227a 7335 61f6 2d35 40bd 2735 0b3d 5935
000002a0: 9960 8b35 b87e 8b34 ecd8 6d35 ed37 8f35
000002b0: f41d 2635 3d9e 3035 cf3e 4935 44d0 2d35
000002c0: 9834 fe34 4daa a834 a2e5 bb34 5d6d ca35
000002d0: 7cc0 bc34 3326 b235 5893 6735 1b89 ac34
000002e0: d7f3 9335 fda0 4535 1af6 1236 3bdc 7135
000002f0: 50c9 e235 4ee8 9335 1f6a af35 7a1b 9635
00000300: 5350 e234 ce42 1b35 f031 3235 93d3 1735
00000310: f335 1a35 28c0 f334 914f 4535 16f9 3435
00000320: 1cb3 8934 76b3 5434 387c 8f35 8174 1335
00000330: 9122 e134 2a2f 0135 51ee 2a35 e36f cb34
00000340: 26cd b234 e2ea c534 24d1 b334 ff88 a235
00000350: 3ae6 1834 8c5f 2635 2ae4 9a35 9cb1 7034
00000360: f448 3535 0af8 9235 ea2a f935 1333 3d35
00000370: 20f3 a535 cdd0 fa34 8cf5 3a35 500f 7235
00000380: 2895 2635 c846 3835 ce5d 6735 73bb 8c35
00000390: adfc 6335 09e7 1335 0f44 4835 223a 5a35
000003a0: 1494 ff34 898c 5a34 9840 7335 84ff 7f35
000003b0: d691 4935 1576 3735 32d3 6535 3412 4035
000003c0: 1284 0035 a8ef 1935 7946 c334 476a a635
000003d0: cf09 1d35 89a4 e135 8024 4135 57d8 b034
000003e0: ce3e 6035 2086 a335 6c56 f435 9e2b 6c35
000003f0: eca2 c635 5886 3635 30b0 b535 30f3 7c35
5.737823e-07 5.72005e-07 1.1432868e-06 8.5768954e-07 8.6008345e-07 4.860844e-07 8.2499014e-07 8.771181e-07
2.5302475e-07 3.1505402e-07 1.1113472e-06 9.365285e-07 5.525159e-07 6.5142876e-07 6.799378e-07 8.156946e-07
5.0813134e-07 9.69545e-07 5.4755196e-07 1.0939038e-06 9.69349e-07 1.444477e-06 1.3102041e-06 4.3602503e-07
7.091616e-07 1.303049e-06 2.2647878e-06 8.445478e-07 1.741319e-06 6.5705285e-07 1.4553459e-06 1.025021e-06
9.1745807e-07 5.947559e-07 6.7620033e-07 6.5186833e-07 1.1862392e-06 6.415084e-07 6.1015743e-07 6.343734e-07
7.5464595e-07 2.1502716e-07 6.764428e-07 1.332554e-06 6.2392706e-07 3.8419807e-07 8.290624e-07 7.727833e-07
3.5324157e-07 3.2177408e-07 4.2693767e-07 9.819857e-07 3.6436558e-07 1.333973e-06 7.794085e-07 2.9531677e-07
7.9143405e-07 9.812078e-07 1.3100433e-06 7.3217825e-07 1.6299522e-06 7.5572933e-07 1.0534842e-06 1.1023558e-06
4.3625977e-07 5.8594753e-07 5.764827e-07 8.2263875e-07 1.0291086e-06 9.007204e-07 6.976539e-07 9.954582e-07
4.8583547e-07 3.596462e-07 7.263648e-07 1.0127069e-06 9.120154e-07 6.1950664e-07 8.8827653e-07 6.758207e-07
5.2125074e-07 8.6105183e-07 5.8508635e-07 1.7536648e-06 5.933036e-07 1.5663067e-06 1.1766202e-06 3.2603205e-07
1.1014894e-06 9.345503e-07 1.5387532e-06 1.1330952e-06 1.6253914e-06 5.7924655e-07 9.812657e-07 1.3731841e-06
1.0051251e-06 8.167412e-07 7.742886e-07 1.0957044e-06 1.5694885e-06 9.4740705e-07 8.843134e-07 9.3579456e-07
4.7951613e-07 5.4048684e-07 9.179279e-07 1.0550197e-06 8.9730906e-07 5.843244e-07 1.0118291e-06 9.956519e-07
4.1329065e-07 3.5192e-07 5.090097e-07 1.4539467e-06 3.908935e-07 1.7835079e-06 1.0340849e-06 4.212078e-07
1.4329383e-06 8.7320103e-07 1.5792492e-06 1.1690098e-06 1.7951722e-06 1.0879312e-06 1.6460995e-06 1.6158931e-06
5.787558e-07 1.1252216e-06 9.051887e-07 5.8160435e-07 4.994013e-07 3.867682e-07 7.7537317e-07 1.0980579e-06
2.9645062e-07 4.579131e-07 8.643528e-07 8.311484e-07 1.0776984e-06 8.1183003e-07 3.641822e-07 5.3331246e-07
3.0304165e-07 4.4790391e-07 3.6580943e-07 1.3175668e-06 4.934172e-07 6.941233e-07 9.5336543e-07 2.3936295e-07
1.651653e-06 1.0820794e-06 1.5797717e-06 6.6569294e-07 1.5416957e-06 5.0559487e-07 1.0337886e-06 8.5561845e-07
8.041486e-07 7.212572e-07 4.1671177e-07 1.0890559e-06 9.070228e-07 6.480605e-07 6.2487743e-07 8.092763e-07
1.0384421e-06 2.5982968e-07 8.8605043e-07 1.0670607e-06 6.1883406e-07 6.5795376e-07 7.4969734e-07 6.475059e-07
4.7349454e-07 3.141635e-07 3.4998544e-07 1.5082002e-06 3.515778e-07 1.3273151e-06 8.626862e-07 3.2137254e-07
1.102332e-06 7.362249e-07 2.1898945e-06 9.0099974e-07 1.6896902e-06 1.1019963e-06 1.3069401e-06 1.1183868e-06
4.2154224e-07 5.7839213e-07 6.6382836e-07 5.6559765e-07 5.7447977e-07 4.540209e-07 7.3504003e-07 6.7417693e-07
2.5648558e-07 1.9809326e-07 1.0690483e-06 5.4931303e-07 4.1934666e-07 4.812488e-07 6.367673e-07 3.7893105e-07
3.330435e-07 3.686501e-07 3.3493518e-07 1.2109812e-06 1.4239859e-07 6.197886e-07 1.1540299e-06 2.2416356e-07
6.7533915e-07 1.0950037e-06 1.8564435e-06 7.048231e-07 1.2364217e-06 4.671805e-07 6.964772e-07 9.017431e-07
6.205687e-07 6.864834e-07 8.619071e-07 1.0485368e-06 8.493178e-07 5.509797e-07 7.4604844e-07 8.1295923e-07
4.7605192e-07 2.0353959e-07 9.061855e-07 9.5366727e-07 7.5090554e-07 6.8344644e-07 8.561648e-07 7.155206e-07
4.7875903e-07 5.734569e-07 3.6372856e-07 1.2398895e-06 5.850133e-07 1.6811692e-06 7.195122e-07 3.2939963e-07
8.3537896e-07 1.2183482e-06 1.8204569e-06 8.798032e-07 1.4799566e-06 6.799578e-07 1.3536828e-06 9.42312e-07

exp_avg f4 [64, 32, 1, 1]
00000000: ffc3 bb35 f6b8 0fb6 da39 97b4 62cf 13b6
00000010: 4d2a 90b6 f887 0a36 7b01 03b7 dd80 f0b5
00000020: 778f d7b6 08ad 0537 f030 2636 9b4c 3bb6
00000030: b343 1237 b7e7 5b36 4d5a 22b7 6136 a7b7
00000040: 86ed d235 b917 36b7 6d81 9235 16c0 08b7
00000050: 4f8e 4937 3ff1 32b6 1cc6 bb36 c901 31b6
00000060: 7c16 27b6 7393 92b5 1b85 4037 ef98 71b6
00000070: fe4f aeb6 f18e 19b6 ccfc 16b6 c5be f4b6
00000080: 9fb5 65b6 495b 7eb6 af05 68b5 f603 8535
00000090: cbcb 91b7 e250 2037 18dc 08b7 c416 8737
000000a0: 8841 50b7 7b67 67b5 041e e7b5 8877 2637
000000b0: 5777 1c37 6a82 4436 30d3 1db6 056e 5336
000000c0: 1036 4a35 4c27 f0b5 d5a4 d5b6 4dc4 39b7
000000d0: 7714 d036 8b2d 6536 bda3 a7b6 8a8d 68b7
000000e0: d0aa d336 6884 af37 7a04 4d37 307d 8937
000000f0: 395a c336 ee15 a037 d943 b136 606b 85b7
00000100: a0d7 2835 c21e 64b6 c41d 2937 9f32 3936
00000110: a596 15b7 fb7e 5a36 7bb6 1db7 b0ca 4837
00000120: 128c 1e36 c14c 1036 c73c 7b37 cbee 8836
00000130: a49e 8f36 a8f3 13b7 6b52 0636 b3a1 b6b6
00000140: 5102 2837 2eb1 0a37 e409 a7b6 86d4 e4b6
00000150: fda2 a4b5 78c4 3bb7 e234 1bb7 5570 afb6
00000160: 0d99 12b6 496c 19b6 bb77 35b6 d1e0 4737
00000170: 9683 7436 5bf7 b136 5042 b136 bf98 2836
00000180: 8f38 9536 eab9 5635 4190 7236 cd80 95b5
00000190: cf31 30b6 bde7 d535 76db e536 9337 5f36
000001a0: 98be a236 20c9 90b5 9057 a4b5 7449 8136
000001b0: 687c 8536 d6b0 d034 b471 b136 6b92 2337
000001c0: 242e 2234 81db 37b5 48d9 6336 10d6 2035
000001d0: 7ce9 a735 2bf6 1fb7 b762 5db6 7bda 4b36
000001e0: f535 0cb7 82dc cab5 9ccb 50b6 97b7 14b7
000001f0: 23d6 4b36 bcb2 efb6 11ba 4b37 5632 9a36
00000200: 345c 6236 153a ad36 78aa 8fb7 5718 8335
00000210: 700c f7b6 3ba7 42b6 a73d 1637 6bff a2b7
00000220: 1d87 0cb7 a81c 96b6 25f5 1e37 c6d1 ddb6
00000230: d945 a2b7 8cd0 dc36 31d1 0537 895a bc36
00000240: 9df1 4c36 508a 63b5 ea7f 7137 c6e1 c236
00000250: 30a7 06b7 fc8b d837 6719 ffb6 485f 7f36
00000260: fc4e d4b6 399f 87b7 0703 e3b7 c29f 4135
00000270: b74b f9b3 a6a3 1c37 ffa7 83b6 56e6 db36
00000280: d1ea 2d36 223e 1836 6229 9334 2105 86b7
00000290: 119b 6a37 5244 2b36 ca5e 7f36 9800 bbb6
000002a0: 302c 9836 0bc3 9036 4b8a 63b5 3449 a636
000002b0: 344f 8635 197f 2c37 69e4 38b6 d123 a433
000002c0: dc26 8b35 cc1e b733 6843 4236 0d4e 5536
000002d0: 37ae b235 0e57 89b7 eb7b 6a37 26c2 ee35
000002e0: 31d6 21b6 7f6d acb6 f625 abb5 098d b3b6
000002f0: cad1 d235 7e9d 62b7 52d9 9e36 9a8d 9435
00000300: e0cf c735 3c47 a135 9bdb c2b5 750f cdb5
00000310: d753 2b35 351e 05b6 c0d0 9e36 8acf bcb5
00000320: cda9 8db6 5779 6736 e481 27b5 2bdd d936
00000330: e9e8 8036 54a3 a836 ba96 80b6 b2ce 2ab6
00000340: 1e8d 8f34 ab8a b036 4195 f8b6 e1bd ca37
00000350: 33b1 3235 3f12 3fb7 e7ec 6636 8777 4d36
00000360: 0c75 b136 f8e4 12b7 a0b1 19b6 cb84 adb6
00000370: 9a5d 0736 c125 43b7 d3dc 5736 f8c2 0c37
00000380: 9849 95b6 c3fc 5c36 4236 a837 81b6 25b7
00000390: 2adb 0936 2aca 0037 c156 a3b7 28f9 4037
000003a0: ef3a 33b6 74b2 24b7 4f95 aa36 ef3c 10b7
000003b0: 0400 86b6 9774 7536 2c3e 3136 e9f3 a9b7
000003c0: c9dc 05b7 aabe 3ab7 c6f3 3437 f06d ddb7
000003d0: 07cb ca36 dc0b df36 f8c2 cdb6 e23d 0036
000003e0: a3b0 8037 3db4 d237 fce8 ab37 5514 9e37
000003f0: 92ca adb6 04f4 1337 2b7e e7b6 0e7d 0db7
1.3989628e-06 -2.1416322e-06 -2.8168034e-07 -2.202542e-06 -4.296459e-06 2.0642747e-06 -7.808553e-06 -1.7918898e-06
-6.424201e-06 7.967705e-06 2.4764413e-06 -2.7909762e-06 8.718041e-06 3.2768419e-06 -9.676977e-06 -1.9933274e-05
1.5715348e-06 -1.0853569e-05 1.0915516e-06 -8.150955e-06 1.2013667e-05 -2.666449e-06 5.5960973e-06 -2.6376094e-06
-2.4898027e-06 -1.0920761e-06 1.1475083e-05 -3.6000818e-06 -5.1949164e-06 -2.288198e-06 -2.249889e-06 -7.293975e-06
-3.4229377e-06 -3.7902084e-06 -8.6435006e-07 9.910425e-07 -1.7380245e-05 9.555575e-06 -8.157476e-06 1.6103855e-05
-1.2413024e-05 -8.620479e-07 -1.7219577e-06 9.922202e-06 9.326111e-06 2.9282187e-06 -2.351775e-06 3.150549e-06
7.5329535e-07 -1.789283e-06 -6.3670836e-06 -1.1072564e-05 6.2012655e-06 3.4150169e-06 -4.9960495e-06 -1.3861232e-05
6.308175e-06 2.0923282e-05 1.22199945e-05 1.6389968e-05 5.821956e-06 1.9083698e-05 5.2829096e-06 -1.5904836e-05
6.289865e-07 -3.399255e-06 1.0080115e-05 2.7596614e-06 -8.916167e-06 3.2558444e-06 -9.400416e-06 1.1968121e-05
2.3625366e-06 2.1502349e-06 1.4974917e-05 4.080915e-06 4.2802003e-06 -8.818613e-06 2.001553e-06 -5.442847e-06
1.001412e-05 8.266694e-06 -4.9781393e-06 -6.8196705e-06 -1.2266388e-06 -1.11918125e-05 -9.251033e-06 -5.2284836e-06
-2.1844783e-06 -2.2861807e-06 -2.7040794e-06 1.19136685e-05 3.6435426e-06 5.303807e-06 5.282731e-06 2.512286e-06
4.4471303e-06 7.9991753e-07 3.6144777e-06 -1.1138851e-06 -2.6255036e-06 1.5937181e-06 6.8502804e-06 3.3261938e-06
4.8501643e-06 -1.0787371e-06 -1.2244436e-06 3.8530507e-06 3.9781917e-06 3.8871684e-07 5.288248e-06 9.749648e-06
1.5104212e-07 -6.849223e-07 3.395211e-06 5.9916147e-07 1.2510422e-06 -9.534454e-06 -3.2989026e-06 3.037653e-06
-8.357213e-06 -1.5114349e-06 -3.1112932e-06 -8.864233e-06 3.0374001e-06 -7.1435625e-06 1.2143065e-05 4.5954175e-06
3.3730294e-06 5.1625634e-06 -1.712631e-05 9.767344e-07 -7.3626215e-06 -2.9005594e-06 8.955051e-06 -1.9430843e-05
-8.376109e-06 -4.4736844e-06 9.474611e-06 -6.610734e-06 -1.934443e-05 6.580789e-06 7.976124e-06 5.6133763e-06
3.0539006e-06 -8.476536e-07 1.4394502e-05 5.807934e-06 -8.025949e-06 2.5814392e-05 -7.6025494e-06 3.8053422e-06
-6.3272873e-06 -1.6167398e-05 -2.7061918e-05 7.213058e-07 -1.16087385e-07 9.336427e-06 -3.9236616e-06 6.5535232e-06
2.591569e-06 2.268593e-06 2.7410994e-07 -1.5976433e-05 1.3983591e-05 2.5520753e-06 3.8053136e-06 -5.5731034e-06
4.535097e-06 4.3142404e-06 -8.476533e-07 4.9557075e-06 1.0006829e-06 1.0281591e-05 -2.7551089e-06 7.64336e-08
1.0367617e-06 8.5272035e-08 2.8947488e-06 3.1784905e-06 1.3312737e-06 -1.637221e-05 1.3976339e-05 1.7788886e-06
-2.4115545e-06 -5.1387465e-06 -1.2751541e-06 -5.3510344e-06 1.5707276e-06 -1.3507319e-05 4.7340664e-06 1.1068071e-06
1.4887155e-06 1.2016167e-06 -1.451804e-06 -1.5278189e-06 6.3824467e-07 -1.9836127e-06 4.7330686e-06 -1.4067493e-06
-4.221895e-06 3.4492311e-06 -6.2401364e-07 6.4928513e-06 3.8418116e-06 5.025804e-06 -3.832244e-06 -2.5452287e-06
2.6738502e-07 5.261352e-06 -7.4083514e-06 2.4168696e-05 6.6568026e-07 -1.1388735e-05 3.4410566e-06 3.0616955e-06
5.288637e-06 -8.755589e-06 -2.2902168e-06 -5.171261e-06 2.017105e-06 -1.1631696e-05 3.2166033e-06 8.390045e-06
-4.4491135e-06 3.2929681e-06 2.0052426e-05 -9.877259e-06 2.054216e-06 7.6764645e-06 -1.9471512e-05 1.1502103e-05
-2.6707382e-06 -9.816711e-06 5.0837766e-06 -8.597256e-06 -3.993513e-06 3.657571e-06 2.6411244e-06 -2.025995e-05
-7.978823e-06 -1.1130856e-05 1.0785594e-05 -2.6396447e-05 6.0437046e-06 6.6472985e-06 -6.1321734e-06 1.9109507e-06
1.5341042e-05 2.511788e-05 2.049328e-05 1.8844536e-05 -5.179384e-06 8.818697e-06 -6.8990244e-06 -8.4333715e-06

exp_avg_sq f4 [64, 32, 1, 1]
00000000: 098f 2e2f ad12 812f 2e48 1130 62f6 0630
00000010: 2ef1 ae2f 30b9 1f2f 4fa8 e12f d919 1630
00000020: 7e9d 6330 80d3 0630 febe 7b30 24b0 b62f
00000030: 9ac1 882f b542 e42f 53a0 b32f 35e5 7230
00000040: ec23 7f2f 76e1 ad2f b0f8 1f30 61d1 bb2f
00000050: 4800 0a30 0777 fb2f c727 f42f 22ae 552f
00000060: 6cfc 922f 0f20 d430 af80 dd2f 8e66 732f
00000070: 0485 1530 ce12 e52f 96a7 a02f 2319 9c2f
00000080: 0fb2 792f aa7a 0730 c912 dd2f 0734 ee2f
00000090: 2a04 a131 ed72 3230 36d5 3930 cbd2 a030
000000a0: f366 0f31 79e9 552f b618 5e30 0e6f b230
000000b0: 89ec 3930 371c 4d30 fafa 2b2f bcb4 4630
000000c0: 6b86 942f 5c25 922f 1e04 a730 fa42 4e30
000000d0: 3420 3e30 1807 f82f 4685 1a30 95ae b830
000000e0: 272b c530 d824 dc30 d3d9 1b30 31b4 2031
000000f0: f646 e630 5689 9730 286e c630 130b a930
00000100: 6522 682f 1aa6 712f 5055 2630 fe9f ae2f
00000110: 7332 6930 f44f 832f 784b 0e30 1ae7 3f30
00000120: d55a 752f 7577 af2f 9b4e a430 271b 8d2f
00000130: bcbf 1230 5c74 5d30 3488 cd2f 7065 902f
00000140: 1e20 ed2f 1fe3 a630 b00b 3e30 fe74 2b30
00000150: 33d7 7f2f c5c2 1a30 d469 ff30 64cd ad2f
00000160: 0027 1a30 493f 0b30 573d 1e30 d829 d730
00000170: 0534 0230 9ac9 9c2f 0e5a 802f 4544 4630
00000180: a076 ad2f 474d ab2f 697b c62f 8ad1 7d30
00000190: 5d6f 3d30 98e6 7b2f 4951 8d2f 48f0 ab2f
000001a0: ae19 492f b64d 9230 3088 ea2f 06c3 8f2f
000001b0: 7c94 b62f 45a1 952f dd2b 3f30 acaa 0430
000001c0: 8f20 b030 c9b4 5330 71f0 2830 d602 7a30
000001d0: 5c73 4f2f 4f36 cc30 7ddd d52f dd0b 632f
000001e0: 0d6c 3530 a551 8630 fe12 0b30 3a02 cd30
000001f0: 07f6 f52f 3c9e 1b31 1162 9430 0602 bb2f
00000200: 8a76 2031 a00c 4731 5c24 ca30 6903 0c31
00000210: f977 9a30 9338 9f31 a319 5231 5bee dd31
00000220: cf5a 1c30 c932 1130 fda1 b230 47a3 4231
00000230: cc39 5631 05c1 c830 c748 2530 f1c8 fb30
00000240: 1468 5130 cec1 9430 be29 1d31 e877 5631
00000250: d492 d330 bef9 8f31 3a5a 3431 84ea f22f
00000260: 5894 a431 8c5c 6232 c7bd 1732 e2fa 1c31
00000270: 83d2 ea30 7870 6d31 3314 f530 7103 3d31
00000280: 23b3 c52f 3d9b b42f f1cf 992f d935 4a30
00000290: f9f7 3d30 a44a ba2f 1049 9f2f efff 4030
000002a0: d50e 3430 b155 4d2f f39c 1130 6cf5 e52f
000002b0: 65f8 ff2f c29f 1430 1af1 722f 0605 a62f
000002c0: ffa0 b72f 49a4 fa2e 5a9d a92f 6d28 7630
000002d0: b3a7 572f 80e8 8030 f748 3330 f4b3 832f
000002e0: 5e87 2130 c344 2330 e0ed 6a30 7ef4 6030
000002f0: a98b 5830 3109 0331 a579 1330 5040 ca2f
00000300: 1fe7 892f eec8 c32f b6c2 e02f b649 7030
00000310: a7a3 0a30 47ba c42f 679a 3530 9edd 1130
00000320: e37b 882f fef7 402f 1fff b230 cdd8 f12f
00000330: c825 c62f b33b 2230 fdc7 d22f 6332 b02f
00000340: 4d23 ab2f f695 8b2f 4363 d62f b071 db30
00000350: 84ed f82e 7f25 3130 7d92 7e30 10fb 512f
00000360: 2db4 2e30 72f4 ae30 72c8 8330 4954 3130
00000370: bd9d 9c30 6658 1330 2e87 5930 22d4 0830
00000380: 70d3 862f 64e9 a22f ca60 3030 7fc4 e92f
00000390: 628e c22f a753 692f b81b 9b30 562f 2130
000003a0: a55b 8c2f 306b 422f 6197 1730 89e0 932f
000003b0: f9ff 9e2f 9623 c32f 24a9 0830 ad6d 6230
000003c0: f45e a52f 967b 522f ea6a fa2f 865e 7d30
000003d0: 54ca 562f aee2 c42f 7c62 1730 a30d 6b2f
000003e0: 29ab ea30 5899 4230 4a25 1730 db21 9f30
000003f0: 5847 f62f b77d c92f cec2 3730 f6e2 a92f
1.5876024e-10 2.3478233e-10 5.2853266e-10 4.9099047e-10 3.1821784e-10 1.4526758e-10 4.1046852e-10 5.4606414e-10
8.280593e-10 4.9049476e-10 9.1584684e-10 3.3230763e-10 2.4875818e-10 4.1520357e-10 3.2673828e-10 8.836481e-10
2.3204877e-10 3.1628716e-10 5.819727e-10 3.4163875e-10 5.0204507e-10 4.5741208e-10 4.4411605e-10 1.9434102e-10
2.6736602e-10 1.5434142e-09 4.02911e-10 2.2137156e-10 5.439491e-10 4.166822e-10 2.9222907e-10 2.8394095e-10
2.2709677e-10 4.928703e-10 4.0213013e-10 4.3328915e-10 4.68619e-09 6.491934e-10 6.76056e-10 1.1701443e-09
2.0867759e-09 1.9455183e-10 8.0798246e-10 1.2982768e-09 6.7638745e-10 7.461866e-10 1.5641524e-10 7.228882e-10
2.7016553e-10 2.658379e-10 1.2152019e-09 7.5037543e-10 6.916736e-10 4.5115978e-10 5.6214267e-10 1.3437381e-09
1.4345901e-09 1.6017578e-09 5.669822e-10 2.3385491e-09 1.6754871e-09 1.1025729e-09 1.4437704e-09 1.2299516e-09
2.1112496e-10 2.1977833e-10 6.0511685e-10 3.1764097e-10 8.48366e-10 2.388557e-10 5.1766547e-10 6.981381e-10
2.231489e-10 3.1917194e-10 1.1954912e-09 2.5667043e-10 5.338696e-10 8.056469e-10 3.738606e-10 2.6265523e-10
4.313287e-10 1.2142641e-09 6.9138206e-10 6.2375693e-10 2.3268569e-10 5.630166e-10 1.858377e-09 3.1614455e-10
5.6080296e-10 5.065784e-10 5.7567234e-10 1.5655202e-09 4.736765e-10 2.851948e-10 2.3347052e-10 7.2128997e-10
3.1552805e-10 3.1159628e-10 3.6103678e-10 9.2338637e-10 6.8916056e-10 2.291024e-10 2.5705507e-10 3.127545e-10
1.8289967e-10 1.0644985e-09 4.266112e-10 2.615012e-10 3.3211112e-10 2.721753e-10 6.954773e-10 4.826386e-10
1.2814939e-09 7.7018264e-10 6.145973e-10 9.09535e-10 1.8867524e-10 1.4858389e-09 3.890185e-10 2.0649744e-10
6.6000966e-10 9.772988e-10 5.0594895e-10 1.4916346e-09 4.4740053e-10 2.2645414e-09 1.0796289e-09 3.401654e-10
2.3350446e-09 2.8965488e-09 1.4707768e-09 2.037462e-09 1.1239073e-09 4.633941e-09 3.0573595e-09 6.4590444e-09
5.6881516e-10 5.282286e-10 1.2997244e-09 2.8323528e-09 3.1173952e-09 1.4606775e-09 6.0130073e-10 1.8319765e-09
7.618166e-10 1.08235e-09 2.2870235e-09 3.1209257e-09 1.5394002e-09 4.19024e-09 2.6244735e-09 4.4186177e-10
4.789893e-09 1.3175974e-08 8.832507e-09 2.2843598e-09 1.7085572e-09 3.455197e-09 1.7831837e-09 2.7505076e-09
3.5961376e-10 3.2852113e-10 2.797829e-10 7.3563694e-10 6.911019e-10 3.3886238e-10 2.8973846e-10 7.0212897e-10
6.5504696e-10 1.8675085e-10 5.297373e-10 4.182924e-10 4.6560725e-10 5.4069116e-10 2.2095428e-10 3.0198793e-10
3.34019e-10 1.1397867e-10 3.0852726e-10 8.9551727e-10 1.9613715e-10 9.379306e-10 6.522351e-10 2.3956626e-10
5.8763827e-10 5.939677e-10 8.5466745e-10 8.183817e-10 7.877881e-10 1.9068234e-09 5.3651156e-10 3.6789283e-10
2.5084376e-10 3.5613062e-10 4.0883713e-10 8.741624e-10 5.043667e-10 3.578455e-10 6.6066835e-10 5.306563e-10
2.4826283e-10 1.7550403e-10 1.3023714e-09 4.399169e-10 3.6042835e-10 5.9020094e-10 3.8340878e-10 3.2050015e-10
3.1129802e-10 2.5390506e-10 3.8996903e-10 1.5966659e-09 1.13199256e-10 6.444551e-10 9.2612834e-10 1.9097635e-10
6.3556876e-10 1.2729642e-09 9.588474e-10 6.4512e-10 1.1395326e-09 5.360391e-10 7.913624e-10 4.977797e-10
2.4524693e-10 2.9633462e-10 6.416597e-10 4.2522072e-10 3.5389564e-10 2.1220946e-10 1.1285612e-09 5.8638727e-10
2.553097e-10 1.7682278e-10 5.51486e-10 2.6898686e-10 2.8921912e-10 3.549558e-10 4.9716875e-10 8.237418e-10
3.0080793e-10 1.9143295e-10 4.5550702e-10 9.217519e-10 1.9535068e-10 3.5813258e-10 5.5073435e-10 2.137797e-10
1.7074387e-09 7.0794703e-10 5.498647e-10 1.1578395e-09 4.4797832e-10 3.6651013e-10 6.6851846e-10 3.0902186e-10

exp_avg f4 [64]
00000000: cc83 4bb8 d319 b9b8 8006 9eb8 6f4d a138
00000010: 323f f437 df84 3638 63d8 d737 9d26 1db9
00000020: 92c1 ea37 7f78 0338 a835 13b9 7a3a d8b4
00000030: 9d78 e5b7 7537 6fb7 8eef 3738 6356 9837
00000040: 14d2 2b38 2a47 a938 8660 b037 1346 a6b8
00000050: 9ff1 9137 8b7c 94b7 5971 4738 c720 c5b5
00000060: 8952 05b9 9f22 cb38 e734 8238 210b 4eb8
00000070: 1774 0838 eb0e 7fb7 ca07 a137 7dff 0738
00000080: 3531 aa37 b49c b137 d011 3638 ab51 7938
00000090: 0b12 9fb7 67bb 5a38 08c4 2737 287f 16b8
000000a0: 8ee1 bc37 739e a0b9 d5a4 4237 7b84 a2b7
000000b0: 3367 aa36 47ea 43b8 b9ff f237 3d02 b738
000000c0: 866c 6138 cf7b 0737 1f4d d337 d0f7 0438
000000d0: 8e80 0638 d0d8 d738 8233 cc37 6bb4 96b9
000000e0: 658b a438 958e 3138 512c 8b38 a3d6 9b38
000000f0: ad62 3e37 aaa2 1738 6df5 35b9 08bd dc37
-4.8521717e-05 -8.8262976e-05 -7.535238e-05 7.6915014e-05 2.9116494e-05 4.3515927e-05 2.573076e-05 -0.00014987071
2.7985112e-05 3.1345055e-05 -0.00014039001 -4.0275683e-07 -2.7355092e-05 -1.4258422e-05 4.3853703e-05 1.8160039e-05
4.0965228e-05 8.071803e-05 2.1025782e-05 -7.928549e-05 1.739786e-05 -1.770097e-05 4.755086e-05 -1.4687183e-06
-0.00012714615 9.686243e-05 6.208737e-05 -4.9124592e-05 3.2533044e-05 -1.5202658e-05 1.9196323e-05 3.242445e-05
2.0288493e-05 2.1173015e-05 4.340877e-05 5.9442285e-05 -1.8962679e-05 5.2149782e-05 9.999618e-06 -3.588121e-05
2.2516379e-05 -0.00030635632 1.1601679e-05 -1.9373596e-05 5.078409e-06 -4.670981e-05 2.8967728e-05 8.726537e-05
5.374525e-05 8.0754535e-06 2.5189072e-05 3.1702046e-05 3.2067815e-05 0.000102923834 2.434268e-05 -0.0002874465
7.846094e-05 4.233288e-05 6.636291e-05 7.430955e-05 1.1347857e-05 3.6152698e-05 -0.00017352933 2.6314068e-05

exp_avg_sq f4 [64]
00000000: ef85 5c33 d21b 4834 f91e d933 df4f ea33
00000010: 605c a734 4574 e231 d682 f730 799d e233
00000020: 9b17 2132 05ed 4931 9fff 2134 2d0c e432
00000030: fd7d 6a33 2a00 8234 f3f9 8c32 9d82 a434
00000040: f5e8 b032 caa5 2a33 6d85 8d32 b251 8634
00000050: 5b37 a930 8c9e a933 bd6a c531 2d1e c532
00000060: a7b0 ca33 ee9d a133 7ec3 1a34 7cf7 8935
00000070: 572e 0232 abb4 4832 6866 bc32 2630 7334
00000080: 3952 6631 7d62 ce31 d1f8 a933 36f7 e632
00000090: 9cfa 4033 597e 0534 6ae0 8a31 c7f5 1f34
000000a0: 1ea5 3931 134a ac34 fdcd a833 cc14 a532
000000b0: 3b55 c632 3225 6033 20e8 c631 4525 8733
000000c0: 0f92 f133 d21b fa30 4f00 b033 2a9f ab33
000000d0: 4a78 6834 532c a634 bb35 9731 1468 9b34
000000e0: 73d4 5533 d1b1 a633 51f9 a432 07a8 ae33
000000f0: bf07 3331 963e 8234 edd4 1934 395e 1d32
5.1344553e-08 1.8636572e-07 1.0110484e-07 1.09110026e-07 3.1173386e-07 6.590684e-09 1.8008801e-09 1.0552589e-07
9.376801e-09 2.938408e-09 1.5087288e-07 2.654823e-08 5.4596956e-08 2.4214506e-07 1.6411809e-08 3.0642414e-07
2.0595033e-08 3.9731994e-08 1.6475235e-08 2.5018886e-07 1.2312101e-09 7.898515e-08 5.7455893e-09 2.294754e-08
9.438491e-08 7.525874e-08 1.4413487e-07 1.0279323e-06 7.577532e-09 1.1682611e-08 2.193265e-08 2.2648655e-07
3.3516143e-09 6.006586e-09 7.914935e-08 2.6887943e-08 4.493141e-08 1.2432555e-07 4.0418415e-09 1.4897442e-07
2.7014901e-09 3.2091393e-07 7.860579e-08 1.9217985e-08 2.3088992e-08 5.2187893e-08 5.788948e-09 6.293207e-08
1.1249005e-07 1.8197801e-09 8.195695e-08 7.99176e-08 2.1650445e-07 3.095216e-07 4.400787e-09 2.8946727e-07
4.978615e-08 7.762322e-08 1.9205489e-08 8.1330704e-08 2.6052331e-09 2.4259924e-07 1.4326697e-07 9.1600265e-09
